last_brain.pth (torch_old, 38595 bytes, 18 tensors)

fc1.weight f4 [50, 5]
0	0x3e7347e2	0.2375789
1	0xbefc2e43	-0.49254045
2	0x3f4e9641	0.8069802
3	0xbf12625e	-0.57181346
4	0x3f38630e	0.72026145
5	0x3f36f965	0.71474296
6	0xbefcbc6d	-0.49362507
7	0xbf9f0dad	-1.2426049
8	0xbeb8f97f	-0.3612785
9	0x3e4abe25	0.19799097
10	0xbf60e1dd	-0.8784464
11	0x3f04728b	0.5173728
12	0xc1bc1a44	-23.512825
13	0x3e3e18db	0.18564169
14	0x3e3a297d	0.18179889
15	0x3f640596	0.89071023
16	0xbe047f7e	-0.1293926
17	0x3f12e028	0.57373285
18	0x3e711409	0.23542799
19	0xbd3fbb95	-0.04680975
20	0x3f1f12b5	0.6213792
21	0x3ea45a9a	0.32100374
22	0xbfa47913	-1.2849449
23	0x3f2d45aa	0.67684424
24	0xbf1f8358	-0.6230979
25	0x3f65e1dd	0.89797765
26	0x3ecc3c77	0.3988988
27	0xbe36c3d4	-0.1784814
28	0xbe6d255c	-0.23158783
29	0x3eefc596	0.46830434
30	0xbe58e24b	-0.21180074
31	0xbd8fe0d0	-0.070253015
32	0xbd2c4160	-0.042054534
33	0x3ec4bf3a	0.38427144
34	0x3e5c4f6c	0.21514672
35	0x3f74f1ba	0.95681345
36	0x3dd38959	0.10328931
37	0xbe94f3a4	-0.29092133
38	0xbf023dfd	-0.50875837
39	0x3f2bef93	0.67162436
40	0xbe3d049c	-0.1845879
41	0x3d5c7510	0.053822577
42	0xbde0121c	-0.10940954
43	0xbcf13020	-0.029441893
44	0x3d93baf8	0.07213396
45	0xbf24989b	-0.6429536
46	0x3ed81f23	0.42211255
47	0xbdfc5824	-0.12321499
48	0x3f3913be	0.7229575
49	0xbf319c28	-0.693789
50	0x3f55731c	0.8337877
51	0xbf2d3757	-0.67662567
52	0xbf1f83c4	-0.62310433
53	0xbdfc066c	-0.123059124
54	0xbd51d9e0	-0.051233172
55	0x3ea123e0	0.31472683
56	0xbf6d9a9f	-0.9281406
57	0x3eb769af	0.35822818
58	0x3ed61168	0.41810155
59	0xbdc06c94	-0.0939571
60	0x3f8bdd35	1.0926882
61	0xc004ff8a	-2.0780969
62	0x3ee27d77	0.44236347
63	0xbe15af74	-0.14617711
64	0x3f2bf308	0.6716771
65	0xbe0bda83	-0.13657574
66	0xbdd83113	-0.10556235
67	0xbf8f4214	-1.119204
68	0xbeff8db8	-0.4991281
69	0x3ed8674c	0.4226631
70	0xbef422e7	-0.47682878
71	0x3e9fb762	0.31194597
72	0x3eeb9048	0.46008515
73	0xbf7b910c	-0.982682
74	0x3f670562	0.9024259
75	0xbeded53e	-0.43522066
76	0x3e8f2b34	0.2796265
77	0x3faa80f4	1.3320603
78	0x3f178443	0.5918619
79	0xbdcb25d5	-0.09919325
80	0xbee0cffb	-0.43908677
81	0xbf1d898a	-0.6153799
82	0x3f3b44fd	0.7315214
83	0x3c027c4d	0.007964206
84	0x3e1df568	0.15425646
85	0xbf5eb8c5	-0.87000686
86	0x3f62d67c	0.8860853
87	0x3e7aa075	0.24475272
88	0xbe1bb6db	-0.15206473
89	0xbe090951	-0.1338246
90	0xbf03f9d4	-0.5155308
91	0x3ea3a17f	0.3195915
92	0xbeacc378	-0.3374288
93	0x3eec6df3	0.46177635
94	0x3cb2a9a6	0.02180941
95	0xbf8988a9	-1.074483
96	0x3f300b03	0.687668
97	0x3e9b7170	0.30359983
98	0x3f2edbdb	0.6830422
99	0xbeefc15f	-0.46827218
100	0xbec09292	-0.37611824
101	0x3e1453ac	0.14485043
102	0x3f816015	1.0107447
103	0xb999faa9	-0.0002936919
104	0xbe002a46	-0.12516126
105	0x3ec50ca8	0.38486218
106	0xbf00ffeb	-0.503905
107	0xbf6b9233	-0.9201996
108	0xbf49293b	-0.7857854
109	0x3f6cbac7	0.924725
110	0xc11046f7	-9.017325
111	0xbe6d3589	-0.23164953
112	0xbdfdc0e9	-0.1239031
113	0x3eda54ca	0.42642814
114	0xbe51b6d6	-0.20479903
115	0xbec9c952	-0.39411408
116	0xbf69a794	-0.9127133
117	0x3d929fbf	0.071593754
118	0x3f6ae6d5	0.9175847
119	0xbf8a15c2	-1.078789
120	0x3f05ea34	0.5231049
121	0x3ef5c6dc	0.4800328
122	0x3dc8c521	0.09803224
123	0xbf2bc2dc	-0.67094207
124	0x3f38aa34	0.7213471
125	0xbeb295c1	-0.34879878
126	0x3f60fa61	0.8788205
127	0xbf34c28e	-0.70609367
128	0xbe86668b	-0.2625011
129	0x3ee13619	0.43986586
130	0xbf71cb50	-0.94450855
131	0x3d433412	0.04765708
132	0x3f455911	0.7708903
133	0x3ee79d3e	0.45237154
134	0xbf5e189b	-0.86756295
135	0xbea735e7	-0.32658312
136	0x3e881f83	0.26586542
137	0x3c12b571	0.008954392
138	0x3f381bf3	0.7191765
139	0xbf0c2299	-0.5474029
140	0xbe5749fb	-0.21024315
141	0x3ed269f9	0.41096476
142	0xbe922aca	-0.2854827
143	0x3e5dba71	0.21653153
144	0x3df54378	0.11975759
145	0xbecfe274	-0.40602458
146	0x3eed81b4	0.46388018
147	0xbfcf59c8	-1.6199274
148	0x3eed3e3e	0.4633655
149	0xbf68ac55	-0.9088796
150	0x3eb8983c	0.36053646
151	0xbece0f18	-0.4024589
152	0x3eb873ba	0.36025792
153	0x3f7b6f7a	0.98216975
154	0xbf8f97e3	-1.1218227
155	0xbf24b538	-0.6433902
156	0x3ef27e7b	0.47362122
157	0x3f0c50fb	0.54811066
158	0x3ea32441	0.31863597
159	0x3e15fef5	0.1464804
160	0xbf3159ea	-0.6927782
161	0x3f07273f	0.5279426
162	0x3e6c9d23	0.23106818
163	0xbeb66767	-0.35625765
164	0x3ec48c7b	0.38388428
165	0x3fac3e43	1.3456501
166	0xbf45ab01	-0.77214056
167	0xbf21f97f	-0.63271326
168	0x3e8823c8	0.265898
169	0xbea6cbb4	-0.32577288
170	0x3eae90f5	0.34094968
171	0x3f0d555f	0.5520839
172	0x3e101200	0.14069366
173	0x3ea803a8	0.3281529
174	0x3e3ebddb	0.18627112
175	0xbd0336a4	-0.03203453
176	0xbccc9a97	-0.024976058
177	0x3e1a77dc	0.15084785
178	0xbdf5d952	-0.12004341
179	0xbe938465	-0.28811947
180	0xbf17dd2b	-0.5932185
181	0x3f169a8b	0.58829564
182	0xbb3a475e	-0.0028423886
183	0xbf38222a	-0.7192713
184	0x3fb1fef1	1.3905927
185	0xbe91826e	-0.28419822
186	0x3f4b353a	0.7937809
187	0x3ea8366a	0.32854015
188	0x3e049cdf	0.12950467
189	0xbe9e27d1	-0.30889753
190	0x3f05ca1d	0.52261525
191	0x3f791552	0.9729816
192	0xbed968c1	-0.42462733
193	0xbdfae1f7	-0.122501306
194	0x3f295cf7	0.6615748
195	0xbe476db8	-0.19475448
196	0xbea62a50	-0.32454157
197	0xbeb1daf3	-0.34737357
198	0x3e0680c4	0.13135058
199	0x3de092d8	0.10965508
200	0xbf35d2b2	-0.7102462
201	0x3f88bf56	1.0683391
202	0xbf90e53b	-1.1319956
203	0xbe0e7a19	-0.13913764
204	0x3e39eef3	0.18157558
205	0xbc5f9536	-0.0136464145
206	0xbe76aca4	-0.24089295
207	0xbd82820f	-0.06372463
208	0xbf86599d	-1.0496098
209	0x3f139c29	0.57660156
210	0x3f867a52	1.0506079
211	0x3c4f76e4	0.012662623
212	0xbf880707	-1.0627145
213	0xbde36da3	-0.11104896
214	0x3d972a30	0.073810935
215	0xc21011a6	-36.017235
216	0xbf1df79c	-0.61705947
217	0xbe445afd	-0.19175334
218	0xbc48f323	-0.012265
219	0x3deed973	0.11662569
220	0x3ee80cb1	0.45322183
221	0xbe05ce26	-0.1306692
222	0x3f23d0fe	0.6399077
223	0x3d060f70	0.032729566
224	0x3e708faa	0.23492303
225	0x3d6ac479	0.057316277
226	0xc1c0f241	-24.118288
227	0x3ebe4f2d	0.3716978
228	0x3e86d14e	0.26331562
229	0x3de49791	0.111617215
230	0xbee5c5ca	-0.44877464
231	0xbba735fe	-0.005102872
232	0xbf5a7b91	-0.853448
233	0x3f562b57	0.8365988
234	0xbf55a32f	-0.83452123
235	0xbec5714d	-0.38563004
236	0xbf163e91	-0.5868922
237	0x3ef7ea8e	0.4842114
238	0xbdf16432	-0.11786689
239	0xbdf97d52	-0.12182106
240	0x3f7ccbd5	0.98748523
241	0x3e35f4ba	0.17769137
242	0x3e54cb9a	0.20780793
243	0x3ecf6d05	0.40512863
244	0xbf182a96	-0.5943998
245	0xbdc0784f	-0.09397947
246	0x3f384479	0.7197948
247	0x3b7b247a	0.0038321302
248	0xbe8b5e27	-0.2722027
249	0x3ec6b0ef	0.38806865

fc1.bias f4 [50]
0	0xbf22fd7d	-0.6366804
1	0x3e26ea77	0.16300379
2	0x3df7bdd1	0.120967515
3	0xbf259c9d	-0.646921
4	0x3e09c0f0	0.13452506
5	0xbf8bc300	-1.0918884
6	0xbe89287c	-0.267887
7	0xbf8435af	-1.0328883
8	0xbe397cc2	-0.18113998
9	0xbe96983b	-0.29413018
10	0x3ecde0c5	0.40210548
11	0x3dc2390d	0.09483538
12	0x3c90fa6c	0.017697535
13	0x3f25fb5a	0.6483666
14	0xbf01c4db	-0.50691
15	0xbf540fbf	-0.82836527
16	0xbd894c5f	-0.0670402
17	0x3bb1ace5	0.005422222
18	0x3e263b1a	0.16233483
19	0xbf40aaaa	-0.7526041
20	0xbe42de01	-0.1903
21	0xbef9590f	-0.4870076
22	0x3f0378a1	0.5135594
23	0xbee28060	-0.44238567
24	0xbefb62ad	-0.4909872
25	0xbe457f7d	-0.19286914
26	0xbcf408eb	-0.029789409
27	0x3ec9f2a7	0.39442942
28	0x3e3dc946	0.18533811
29	0xbdca942b	-0.09891542
30	0xbf3594b1	-0.7093001
31	0x3d8c2b88	0.068442404
32	0x3e8b8570	0.27250242
33	0x3eaa565e	0.33269018
34	0xbd6a1906	-0.05715277
35	0x3c4ac539	0.012376123
36	0xbf32d029	-0.6984888
37	0xbefca291	-0.49342778
38	0xbf09371f	-0.53599733
39	0xbe5f41d7	-0.2180246
40	0xbdc3c543	-0.09559109
41	0xbde736f1	-0.11289776
42	0x3d6f9e09	0.058500323
43	0x3ea437d1	0.32073835
44	0xbe0b0d7b	-0.13579361
45	0x3e5b97e8	0.21444666
46	0xbe633e1c	-0.22191662
47	0x3ee721c1	0.4514294
48	0xbe1130cf	-0.14178775
49	0xbdcf0d92	-0.1011001

fc2.weight f4 [50, 50]
0	0xbdad932c	-0.084753364
1	0xbd4ae053	-0.04953034
2	0x3d62077c	0.05518292
3	0x3d2b47f1	0.041816656
4	0x3cc480fa	0.023987282
5	0xbcce7cf3	-0.025206065
6	0x3ddfe422	0.10932185
7	0xbd780754	-0.060553864
8	0x3da19d62	0.078913465
9	0xbe0f2f1d	-0.13982816
10	0xbde5c378	-0.11218923
11	0xbdaecd8e	-0.085353
12	0x3ddd0e15	0.107937016
13	0x3a7a383c	0.0009545123
14	0xb8e50916	-0.00010921263
15	0x3de2d8f7	0.11076539
16	0xbe4cf55f	-0.20015477
17	0xbd8d45ae	-0.06898056
18	0xbd2b92fb	-0.04188822
19	0x3cdd6f70	0.027030677
20	0x3d262aa0	0.040567994
21	0x3d8355ca	0.06412847
22	0xbd421fa0	-0.04739344
23	0x3d90d5fa	0.07072063
24	0xbd4cf875	-0.050041635
25	0xbdb397fd	-0.08769224
26	0xbe1527f1	-0.14566018
27	0xbe07e6e6	-0.13271675
28	0x3d8d271b	0.068922244
29	0xbcd3b7c2	-0.025844458
30	0xbda6f1dc	-0.081516
31	0xbdf73552	-0.12070717
32	0xbe0d248f	-0.13783477
33	0x3d6d1c44	0.057888284
34	0x3d107721	0.03526986
35	0x3a1b76d4	0.00059304875
36	0xbd0c3eb6	-0.034239493
37	0xbe4090e0	-0.18805265
38	0xbe53c1a1	-0.20679332
39	0x3bb449c0	0.0055019557
40	0xbdcfd063	-0.101471685
41	0x3db9eca6	0.0907834
42	0xbdafa0e8	-0.08575612
43	0xbc478c84	-0.012179498
44	0xbe595a74	-0.21225911
45	0xbe1870c1	-0.14886762
46	0x3dff5b79	0.12468619
47	0xbda690de	-0.081331
48	0x3cc8e0c6	0.024521243
49	0xbde36c50	-0.11104643
50	0xbfcaee3a	-1.5853951
51	0x3e0cd0ef	0.13751577
52	0xbff5bfff	-1.9199218
53	0xbf912499	-1.1339294
54	0x3e2fb0cb	0.17157285
55	0x3f1e55e8	0.6184983
56	0xbcb6a7e8	-0.02229686
57	0xc0286c76	-2.63162
58	0xbcff4138	-0.031159028
59	0xbecdfc61	-0.40231612
60	0xbefefb66	-0.49801177
61	0xbec334dd	-0.3812627
62	0x3eb5795c	0.35444152
63	0xbe9f4fab	-0.3111547
64	0xbf4d3a4d	-0.80167085
65	0xbf84389a	-1.0329773
66	0x3efcab13	0.4934927
67	0x3daa97b4	0.08329716
68	0x3f0432bd	0.5163992
69	0xc0429143	-3.040116
70	0xbf0c090a	-0.5470129
71	0x3f10db3a	0.56584513
72	0xbf98d081	-1.193863
73	0xbe6e09c5	-0.23245914
74	0x3dc47109	0.09591872
75	0xbeda3540	-0.42618752
76	0x3f1471b6	0.5798601
77	0xbddeb482	-0.10874273
78	0x3e9f9735	0.3117005
79	0xbe4a0fea	-0.19732633
80	0xbe95d4ef	-0.29264018
81	0x3e799633	0.24373703
82	0x3b7a65f0	0.0038207732
83	0xbed6a9b3	-0.41926345
84	0x3e8feb32	0.28109127
85	0x3dbedc3a	0.09319349
86	0xbf7cc0d1	-0.98731714
87	0x3c90f2c8	0.017693892
88	0xbeed0e02	-0.4629975
89	0x3dcfc980	0.10145855
90	0xbf88949f	-1.0670356
91	0x3fdcba52	1.724436
92	0x3d723254	0.059130028
93	0x3dfed39b	0.12442704
94	0xbe36b0d6	-0.17840895
95	0xc00e00cf	-2.2187994
96	0x3e592bfe	0.21208188
97	0xbe114e91	-0.14190127
98	0x3e82553b	0.2545565
99	0x3e4fbd86	0.20287141
100	0xbe126456	-0.14296088
101	0x3da4c0f9	0.08044619
102	0xbd8c7339	-0.068579145
103	0xbda7ea27	-0.08198958
104	0x3bc110bc	0.0058918875
105	0xbdb0ff49	-0.08642442
106	0x3d3612e8	0.044451624
107	0xbd2fb0c9	-0.042893205
108	0xbdb422ac	-0.08795676
109	0xbb1c8971	-0.0023885632
110	0xbd468991	-0.048471037
111	0xbe01b0d1	-0.12665106
112	0x3dce7fd9	0.10082979
113	0xbce79d29	-0.028273182
114	0x3bc1da2a	0.0059158998
115	0x3dbf2b0a	0.09334381
116	0xbc3ae9f1	-0.011408315
117	0xbd1ecb9f	-0.038768407
118	0xbe17a179	-0.1480769
119	0x3d6622ca	0.05618552
120	0x3dea185d	0.11430428
121	0xbd579208	-0.0526295
122	0xbe3a05d1	-0.18166281
123	0xbd59af09	-0.053145442
124	0xbe179e53	-0.1480649
125	0x3ca9784a	0.020687241
126	0x3c86a052	0.016433869
127	0x3dbc75b2	0.09202136
128	0x3de4a51a	0.11164303
129	0x3d4603b3	0.04834337
130	0xbcb6ff66	-0.02233858
131	0x3d4841ea	0.048890986
132	0xbe2940a0	-0.16528559
133	0x3d03ce29	0.03217903
134	0xbe07f818	-0.13278234
135	0xbdf5bf7b	-0.119994126
136	0xbd8d22ed	-0.06891427
137	0xbdc45c51	-0.095879205
138	0xbe3c1483	-0.183672
139	0x3dd46192	0.103701726
140	0x3d7d7829	0.06188217
141	0x3d8b7649	0.068096705
142	0xbd10becd	-0.03533821
143	0xbc40069e	-0.011720328
144	0x3cffa137	0.031204803
145	0x3de44423	0.111458085
146	0xbdd4ba24	-0.10387066
147	0xbdeddecc	-0.11614761
148	0xbdc98fbb	-0.098418675
149	0xbdacee1a	-0.08443852
150	0x3d9564a0	0.07294583
151	0x3f34f012	0.7067882
152	0xbd8ad6e5	-0.06779269
153	0xbe771b66	-0.24131545
154	0x3efcc363	0.49367818
155	0x3f57377c	0.8406904
156	0x3e0ccfdf	0.13751172
157	0x3e16fdd8	0.14745271
158	0x3dc97658	0.098370254
159	0x3ef86ce4	0.48520577
160	0x3e14ef33	0.14544372
161	0x3e9ed53f	0.3102207
162	0x3f0097bf	0.50231546
163	0xbebfe757	-0.37481186
164	0x3f11e373	0.56987685
165	0xbf7a4eb6	-0.97776353
166	0xbf42e7d0	-0.7613497
167	0x3dbf835b	0.09351226
168	0x3ec8e989	0.39240673
169	0xbf0b875e	-0.5450343
170	0x3cbcfe94	0.023070611
171	0x3ec706c3	0.38872346
172	0xbf5e4ce4	-0.86836076
173	0xbecf2377	-0.40456745
174	0x3e15de69	0.14635624
175	0x3e4c9f30	0.199826
176	0xbee5456f	-0.44779536
177	0x3e12b768	0.14327776
178	0x3f101cbe	0.5629386
179	0x3ef81c17	0.4845893
180	0xbe05bfa1	-0.13061382
181	0xbeb02c0a	-0.344086
182	0xbe66f208	-0.22553265
183	0x3eab5586	0.33463687
184	0x3f46b771	0.7762366
185	0x3dcb4226	0.09924726
186	0xbf963d21	-1.1737405
187	0xbefcfcbe	-0.49411577
188	0x3f01bd3c	0.50679374
189	0x3c915000	0.017738342
190	0xbfc47770	-1.534895
191	0x3ec96e28	0.39341855
192	0x3e763224	0.24042565
193	0xbf4dfbaa	-0.80462134
194	0x3ee57395	0.44814745
195	0xbfb51d33	-1.4149536
196	0x3e1402b7	0.1445416
197	0x3e9c1043	0.30481157
198	0x3ee8386d	0.4535555
199	0x3ea21d28	0.3166287
200	0xb9463205	-0.00018901385
201	0x3da77949	0.0817743
202	0x3df0c88a	0.11757
203	0xbd216014	-0.039398268
204	0x3d1f0564	0.0388235
205	0xbe357467	-0.17720185
206	0x3d2459d8	0.040124744
207	0xbcbdf74a	-0.023189206
208	0xbd34a266	-0.044100188
209	0xbdeb2197	-0.11481016
210	0xbe0ec483	-0.13942151
211	0xbdc2a574	-0.09504214
212	0x3d34d78e	0.04415088
213	0x3d9b824d	0.07593212
214	0xbd86f040	-0.06588793
215	0xbd07a420	-0.033115506
216	0x3d6fa114	0.058503225
217	0xbdc4dd70	-0.09612548
218	0xbbe40968	-0.006959129
219	0x3dd160f4	0.102235705
220	0x3da409be	0.08009671
221	0x3d5b843a	0.053592898
222	0xbbede725	-0.0072602206
223	0xbdb07c9e	-0.08617519
224	0xbe18e4de	-0.14931056
225	0xbddb5013	-0.10708632
226	0x3c33ade0	0.010966748
227	0xbde2fccf	-0.11083376
228	0xbd54e0a1	-0.051972035
229	0x3df84a66	0.121235654
230	0x3d504e00	0.050855637
231	0xbdebac00	-0.11507416
232	0xbe0d51a4	-0.13800675
233	0x3dc400ec	0.09570488
234	0xbdb5c4a1	-0.088753946
235	0xbd992eb9	-0.07479615
236	0xbd6f38ae	-0.058403663
237	0x3d010a94	0.03150423
238	0xbc9143b7	-0.017732484
239	0xbe01f930	-0.12692714
240	0xbd598d2e	-0.053113155
241	0x3d95a870	0.073075175
242	0x3db93f7b	0.09045311
243	0xbd5449b3	-0.051828098
244	0xbda10621	-0.07862497
245	0x3d4833fa	0.048877694
246	0x3d8ad090	0.067780614
247	0xbd85a4a1	-0.06525541
248	0xbd596079	-0.05307052
249	0xbe2a1cd6	-0.16612563
250	0xbfb95276	-1.447829
251	0x3e2eb62d	0.17061682
252	0xbff5953c	-1.9186168
253	0xbe09ef7a	-0.1347026
254	0xbf54e8a2	-0.8316747
255	0x3e6b1446	0.22956952

fc2.bias f4 [50]
0	0x3d02522a	0.03181664
1	0x3eedd67f	0.4645271
2	0xbddf8086	-0.10913186
3	0x3f005b7c	0.50139594
4	0xbe3798a4	-0.17929322
5	0x3efb40dc	0.4907292
6	0x3eb1eac0	0.34749413
7	0xbd36eab4	-0.044657424
8	0x3edc3365	0.4300796
9	0xbdc2b745	-0.09507612
10	0xbd7934aa	-0.06084124
11	0x3ec713e9	0.38882378
12	0x3f40145e	0.7503108
13	0x3f289581	0.65853125
14	0x3dbffd31	0.09374464
15	0x3f1fe597	0.624597
16	0x3d084892	0.033272333
17	0xbd52d5b9	-0.051473353
18	0xbec7e8fc	-0.3904494
19	0x3ed46b91	0.41488317
20	0xbd8e3baf	-0.069449775
21	0xbeafce8f	-0.3433728
22	0x3ec05571	0.37565187
23	0x3f1da367	0.6157746
24	0xbdfc4f1e	-0.12319778
25	0x3d6376c3	0.055533182
26	0x3edecd1e	0.43515867
27	0x3f1485af	0.58016485
28	0x3ec6a168	0.38795018
29	0x3ee3b8a1	0.44476798
30	0x3dc7308c	0.097260565
31	0x3e56a321	0.20960666
32	0xbe08643f	-0.13319491
33	0xbef5130a	-0.47866088
34	0xbeac02c1	-0.3359585
35	0x3e0a0227	0.13477384
36	0xbe3f27b3	-0.18667488
37	0xbed9cbac	-0.42538202
38	0x3f300ffc	0.6877439
39	0x3e777b1d	0.24168058
40	0x3eec08a2	0.46100336
41	0x3dc41d4c	0.095759004
42	0x3d88e1ee	0.06683718
43	0x3ec17235	0.37782446
44	0xbd37d2bb	-0.044878703
45	0x3b8ee360	0.0043606013
46	0xbe12e8ff	-0.14346693
47	0x3e087a03	0.13327794
48	0x3f1c7784	0.61119866
49	0xbdc8f4d2	-0.09812321

fc3.weight f4 [3, 50]
0	0x3d030eaf	0.031996425
1	0x3f21a7ca	0.6314665
2	0x3ad5a22b	0.001629894
3	0xbe1a2fb8	-0.15057266
4	0xbd79a884	-0.060951725
5	0x3e8741ba	0.26417333
6	0x3d4d2717	0.050086107
7	0x3dcd4e3e	0.10024689
8	0xbf264b53	-0.64958686
9	0x3db21157	0.086947136
10	0x3dbf2e48	0.09334999
11	0xbe5c9b36	-0.21543583
12	0xbefccf4f	-0.49376914
13	0xbf160c21	-0.5861226
14	0xbf816378	-1.010848
15	0xbf51e018	-0.81982565
16	0xbe4969bb	-0.19669239
17	0xbe0a3736	-0.13497624
18	0x3f51c713	0.8194439
19	0xbed0dc56	-0.40793103
20	0xba8d2c4b	-0.0010770647
21	0x3f3e91ca	0.74441206
22	0x3ef32d8d	0.4749569
23	0xbf3f5102	-0.74732983
24	0x3d057521	0.032582406
25	0xbde31530	-0.110880256
26	0xbecc4a19	-0.39900282
27	0xbf8d51b4	-1.1040559
28	0xbf1494d2	-0.5803958
29	0x3f07892a	0.5294367
30	0x3eaa1e7d	0.33226386
31	0x3f50de51	0.8158923
32	0xbd8e0caa	-0.06936009
33	0x3fa132dc	1.2593646
34	0x3efee732	0.49785763
35	0x3e966800	0.2937622
36	0x3e49aa7c	0.19693941
37	0xbde0de18	-0.10979861
38	0xbf13b610	-0.5769968
39	0xbf712090	-0.9419031
40	0xbee15bfa	-0.44015485
41	0x3dcb9091	0.09939683
42	0xbf753bed	-0.95794564
43	0xbea935b4	-0.33048785
44	0xbf2accf7	-0.66719
45	0x3d4658ca	0.04842452
46	0x3be9ab2d	0.0071310014
47	0x3f214acd	0.6300476
48	0xbee24379	-0.44192103
49	0x3f1acaba	0.60465586
50	0x3bc10926	0.005890983
51	0x3f7c6108	0.9858556
52	0xbcb839a2	-0.022488419
53	0xbef0f3ae	-0.47060913
54	0x3dd758ef	0.105150096
55	0x3f200a48	0.6251569
56	0x3e91db1a	0.28487474
57	0xbdbde5fe	-0.09272383
58	0xbf1a9ab4	-0.6039231
59	0x3d03c871	0.032173578
60	0xbd2d5c2f	-0.04232424
61	0xbeac12ab	-0.33607993
62	0xbf03cb21	-0.51481825
63	0xbecea3f9	-0.40359476
64	0xbfb6dbde	-1.4285848
65	0xbfa544ce	-1.2911623
66	0x3f575f93	0.8413021
67	0x3d274558	0.040837616
68	0x3f02025f	0.5078487
69	0xbe5070f4	-0.20355588
70	0x3c3eecce	0.011653138
71	0x3ea768ba	0.32697088
72	0x3f74c390	0.95610905
73	0xbf70dfbb	-0.94091386
74	0xbb80ad3d	-0.0039269016
75	0xbf2ec01e	-0.682619
76	0xbdeffe3f	-0.117184155
77	0xbf53b42c	-0.82696795
78	0xbe8496c3	-0.25896272
79	0x3f225c52	0.6342212
80	0x3e83d130	0.25745535
81	0x3f848705	1.0353705
82	0x3d29f9ff	0.04149818
83	0x3f523d36	0.8212465
84	0x3e0ada71	0.13559891
85	0x3f8135ea	1.0094578
86	0x3dab2504	0.083566695
87	0xbf6cd9b2	-0.92519677
88	0xbeca22b6	-0.39479607
89	0x3e8285bc	0.25492656
90	0xbf0f70a0	-0.5603123
91	0x3db102e3	0.08643129
92	0xbf6ffefd	-0.93748456
93	0x3e9791ed	0.2960352
94	0xbf37edb1	-0.71847063
95	0x3ac12830	0.0014736708
96	0xbdfeda3b	-0.12443968
97	0x3f085413	0.5325329
98	0xbefcd65d	-0.49382296
99	0x3f0b2a3b	0.54361314
100	0xbdcbe0d5	-0.09954993
101	0xbfa5d833	-1.2956604
102	0x3d889966	0.066698834
103	0xbe020f62	-0.1270118
104	0x3d9c2b16	0.076254055
105	0xbe95e099	-0.29272917
106	0xbf2c5d2b	-0.67329663
107	0x3ac4ba9f	0.0015009231
108	0xbe879531	-0.26481012
109	0x3dfa76b1	0.1222967
110	0x3c313f30	0.010818288
111	0x3e3b86a7	0.18313085
112	0xbee0ec31	-0.439302
113	0xbf25e80d	-0.64807206
114	0xbf8aed27	-1.0853623
115	0xbeac4676	-0.33647507
116	0xbf06c7ab	-0.5264842
117	0xbd84d6b5	-0.064862646
118	0x3f2df342	0.67949307
119	0xbef867f7	-0.4851682
120	0xbcaa44f0	-0.020784825
121	0x3f6e833c	0.93169
122	0x3f08e15e	0.53468883
123	0x3d8d0e0c	0.06887445
124	0xbe15e666	-0.14638671
125	0x3ed3b791	0.41350988
126	0xbec88edd	-0.39171496
127	0xbf880cc7	-1.0628899
128	0xbf3095ab	-0.68978375
129	0x3f2f8a18	0.6857009
130	0x3f57b29f	0.8425693
131	0x3f441261	0.76590544
132	0x3de311fa	0.11087413
133	0x3fc0b661	1.5055658
134	0x3e953950	0.29145288
135	0xbe43fb58	-0.19138849
136	0xbd29fd28	-0.041501194
137	0x3eeab5c9	0.45841816
138	0xbf292a5c	-0.6608026
139	0xbf541756	-0.8284811
140	0xbe33c19c	-0.17554325
141	0x3cdb3c55	0.026762167
142	0xbf4a3f8f	-0.7900323
143	0xbf433bea	-0.76263297
144	0xbf358063	-0.7089903
145	0xbd5532fc	-0.052050576
146	0xbdf21dfa	-0.11822124
147	0xbe6eeb79	-0.23332013
148	0xbe839158	-0.25696826
149	0x3f390ef0	0.7228842

fc3.bias f4 [3]
0	0x3e984b64	0.29745018
1	0xbe7476ac	-0.23873395
2	0xbe8fad4d	-0.28061906

exp_avg f4 [50, 5]
0	0x3a0ad508	0.00052960264
1	0x3ae5ba63	0.0017526861
2	0xbb44930c	-0.0029994873
3	0x3b8be2d3	0.004268983
4	0xbb8be2d3	-0.004268983
5	0x3a9e6200	0.001208365
6	0xb9ac2b34	-0.00032838585
7	0xba1aa817	-0.0005899681
8	0x3a59a342	0.00083022204
9	0xba59a342	-0.00083022204
10	0x3a3d30db	0.0007217058
11	0xba8f4617	-0.0010930923
12	0x36f16efc	7.19528e-06
13	0x3b7f555e	0.0038960795
14	0xbb7f555e	-0.0038960795
15	0x3af4ba63	0.001867127
16	0x3aca6d28	0.0015443908
17	0x3b1ed7c7	0.00242375
18	0x3b569fd6	0.0032749078
19	0xbb569fd6	-0.0032749078
20	0x3b7acaff	0.0038267968
21	0x39b48b1f	0.0003443593
22	0x3b1b4bce	0.0023696306
23	0x3b1d8712	0.0024036807
24	0xbb1d8712	-0.0024036807
25	0x3ba6bf10	0.0050886944
26	0x3baa76cc	0.00520215
27	0x3b263cd8	0.0025365856
28	0xb9fa498e	-0.00047738518
29	0x39fa498e	0.00047738518
30	0x00000000	0.0
31	0x00000000	0.0
32	0x00000000	0.0
33	0x00000000	0.0
34	0x00000000	0.0
35	0xbab49b31	-0.0013779161
36	0xbad5e56b	-0.0016318982
37	0xbab13680	-0.0013520271
38	0x38d129c3	9.973675e-05
39	0xb8d129c3	-9.973675e-05
40	0x00000000	0.0
41	0x00000000	0.0
42	0x00000000	0.0
43	0x00000000	0.0
44	0x00000000	0.0
45	0x3a24c36a	0.00062852225
46	0xb9ea28ad	-0.00044662264
47	0x3a57e51c	0.0008235739
48	0xba80e3d7	-0.0009833527
49	0x3a80e3d7	0.0009833527
50	0xbc23af06	-0.009990459
51	0xbbe35980	-0.0069381595
52	0xbbd56cb3	-0.006513202
53	0x38e1cf60	0.00010767463
54	0xb8e1cf60	-0.00010767463
55	0x3a70e6c6	0.00091896614
56	0x3aa88ac1	0.0012858735
57	0x3a958a7f	0.0011409073
58	0x3983ebb4	0.0002516188
59	0xb983ebb4	-0.0002516188
60	0x361ae800	2.308283e-06
61	0xbab34f56	-0.001368026
62	0x3adef1ba	0.0017009296
63	0xb94a8968	-0.00019315409
64	0x394a8968	0.00019315409
65	0xb99e42e0	-0.00030185934
66	0x3a94fb3e	0.001136638
67	0x3ae447ca	0.0017416414
68	0x3bb4a302	0.005512596
69	0xbbb4a302	-0.005512596
70	0xb9ad6076	-0.00033069
71	0xbac4721e	-0.0014987623
72	0xbb9a58ac	-0.0047102775
73	0x3b059278	0.0020381492
74	0xbb059278	-0.0020381492
75	0xbb1b184e	-0.002366561
76	0xba158dd7	-0.0005705035
77	0xba6cfed6	-0.0009040659
78	0xb9049e12	-0.00012647387
79	0x39049e12	0.00012647387
80	0xba75b8b0	-0.0009373529
81	0x3a866f6e	0.0010256597
82	0xba227401	-0.00061970955
83	0xbb248ce4	-0.0025108391
84	0x3b248ce4	0.0025108391
85	0x3b2026b3	0.002443713
86	0x3b123780	0.0022310913
87	0x3aebc18a	0.0017986756
88	0xb8924260	-6.974186e-05
89	0x38924260	6.974186e-05
90	0x3b3524d7	0.0027640366
91	0x3b293e5b	0.002582452
92	0x3b87a7eb	0.0041398904
93	0x3b2186db	0.002464703
94	0xbb2186db	-0.002464703
95	0x39baf901	0.00035662207
96	0xbab3d9dd	-0.0013721545
97	0xba58bd81	-0.00082679844
98	0x3a9d8cda	0.0012020126
99	0xba9d8cda	-0.0012020126
100	0xbaf0b88d	-0.0018365547
101	0xbb4bc1a6	-0.0031090765
102	0xb8908128	-6.890512e-05
103	0x3bb9efb4	0.005674327
104	0xbbb9efb4	-0.005674327
105	0x3b302511	0.0026877562
106	0x3b2f0054	0.0026703076
107	0x3a91a55e	0.0011111905
108	0x3ae219b9	0.0017250098
109	0xbae219b9	-0.0017250098
110	0x376b8c05	1.4039692e-05
111	0xb9870f34	-0.00025760534
112	0x3a9a35d8	0.0011765314
113	0x3b99f76e	0.0046986854
114	0xbb99f76e	-0.0046986854
115	0xb9f195df	-0.00046078765
116	0xbb07eb85	-0.0020739746
117	0xba641153	-0.0008700091
118	0xbb0569e7	-0.0020357312
119	0x3b0569e7	0.0020357312
120	0x3ab23d3c	0.0013598572
121	0x3b3d6f06	0.0028905286
122	0x3a803323	0.0009780865
123	0xb980fff7	-0.0002460477
124	0x3980fff7	0.0002460477
125	0x3ab2ff52	0.0013656414
126	0x3a8f516a	0.0010934297
127	0xb81aebe0	-3.6936137e-05
128	0xba56b271	-0.0008190042
129	0x3a56b271	0.0008190042
130	0xb98880ec	-0.00026035996
131	0x3b02879d	0.0019917258
132	0x371350e0	8.780713e-06
133	0x391dda84	0.0001505409
134	0xb91dda84	-0.0001505409
135	0xba7e6cf2	-0.0009705565
136	0xbb8179fb	-0.003951309
137	0xba2bf0a4	-0.00065589906
138	0xbaf68aa4	-0.0018809629
139	0x3af68aa4	0.0018809629
140	0x3aa8b14a	0.0012870219
141	0x39bf085b	0.00036436584
142	0x3a3e5e73	0.0007261999
143	0x39a7c5ec	0.00032000185
144	0xb9a7c5ec	-0.00032000185
145	0x3a822832	0.0009930192
146	0x3ada418c	0.0016651615
147	0x3aa85623	0.0012843054
148	0x3b454732	0.003010225
149	0xbb454732	-0.003010225
150	0xbab9777c	-0.0014149989
151	0xba012ac0	-0.000492733
152	0xbb3a0186	-0.0028382256
153	0xbbeeee1b	-0.007291568
154	0x3beeee1b	0.007291568
155	0x3a1ed4cf	0.00060589326
156	0x3af4b79b	0.0018670441
157	0x3adb38a8	0.0016725259
158	0x3aac605d	0.0013151277
159	0xbaac605d	-0.0013151277
160	0x3afd8ff5	0.0019345271
161	0x3a1cbce2	0.00059790735
162	0x3b09259f	0.0020926965
163	0xbaec8712	-0.0018045625
164	0x3aec8712	0.0018045625
165	0xba2c2820	-0.00065672584
166	0xba15a3d8	-0.00057083135
167	0xb98c4a50	-0.00026758248
168	0x3956d7c7	0.00020489014
169	0xb956d7c7	-0.00020489014
170	0x3bace04f	0.005275763
171	0x3b4db796	0.0031389943
172	0x3b486ca0	0.0030582324
173	0xbb4a1f5a	-0.003084144
174	0x3b4a1f5a	0.003084144
175	0xb94338a8	-0.00018617755
176	0x3a93348b	0.0011230869
177	0xb83f8d2d	-4.566943e-05
178	0x39274ba8	0.00015954545
179	0xb9274ba8	-0.00015954545
180	0xb90d9b75	-0.0001350472
181	0x3a98d802	0.0011661055
182	0x3c04e902	0.008112194
183	0xbb27672a	-0.0025543668
184	0x3b27672a	0.0025543668
185	0xbb0b7d59	-0.002128443
186	0xba8b1027	-0.0010609672
187	0xbb23d3cf	-0.0024998074
188	0xbb2d59f7	-0.0026451328
189	0x3b2d59f7	0.0026451328
190	0xba6203b1	-0.0008621766
191	0xba951603	-0.0011374358
192	0xba4838a9	-0.00076378376
193	0xbaded440	-0.0017000511
194	0x3aded440	0.0017000511
195	0x00000000	0.0
196	0x00000000	0.0
197	0x00000000	0.0
198	0x00000000	0.0
199	0x00000000	0.0
200	0x3a86510c	0.0010247543
201	0x3b7a1b70	0.0038163327
202	0x396d6567	0.00022639857
203	0x39803d96	0.00024459948
204	0xb9803d96	-0.00024459948
205	0x3a8ae389	0.0010596375
206	0x3a9b5d8a	0.0011853438
207	0x3b15716a	0.0022803196
208	0xba84da0a	-0.0010135781
209	0x3a84da0a	0.0010135781
210	0xb9616ab4	-0.00021497422
211	0xbafeb79c	-0.0019433382
212	0x39fae41c	0.0004785367
213	0xbaaddf52	-0.0013265407
214	0x3aaddf52	0.0013265407
215	0xb5bd5aee	-1.4108061e-06
216	0x3ad3ebcc	0.0016168295
217	0x3b010fd1	0.0019693265
218	0x3c2d664b	0.010583471
219	0xbc2d664b	-0.010583471
220	0x3b22e5e9	0.0024856275
221	0x3b4a930c	0.00309104
222	0x3b80ecbc	0.003934471
223	0x3b5ad52e	0.0033391225
224	0xbb5ad52e	-0.0033391225
225	0x374a5f00	1.2062257e-05
226	0x38d4a42a	0.00010139526
227	0x3bcb6288	0.006206814
228	0x39355888	0.00017294486
229	0xb9355888	-0.00017294486
230	0xba02dddc	-0.0004992166
231	0xbb28c14c	-0.002574998
232	0x3adbe440	0.0016776398
233	0x3b7f7133	0.0038977384
234	0xbb7f7133	-0.0038977384
235	0x3a7f610c	0.0009741939
236	0xba13f046	-0.00056434085
237	0x3b1dff72	0.0024108556
238	0x383aaac0	4.450488e-05
239	0xb83aaac0	-4.450488e-05
240	0x3b5b4762	0.0033459296
241	0x3af3206e	0.0018549094
242	0x3b5c3a63	0.0033604137
243	0xbb8295bd	-0.0039851354
244	0x3b8295bd	0.0039851354
245	0x3a207955	0.00061215955
246	0xba91599d	-0.0011089329
247	0xba5dd66e	-0.00084624335
248	0xba633e4e	-0.0008668647
249	0x3a633e4e	0.0008668647

exp_avg_sq f4 [50, 5]
0	0x38f2a77b	0.00011570655
1	0x389219cf	6.96663e-05
2	0x39473074	0.00018996169
3	0x39988253	0.00029088798
4	0x39988253	0.00029088798
5	0x3934326e	0.00017184924
6	0x396afff4	0.00022411329
7	0x37cc2706	2.4336867e-05
8	0x394fa5c6	0.00019802814
9	0x394fa5c6	0.00019802814
10	0x380085cf	3.0642197e-05
11	0x39bac8bb	0.0003562624
12	0x3194b656	4.328096e-09
13	0x3a07a341	0.0005174168
14	0x3a07a341	0.0005174168
15	0x39088c3a	0.00013022209
16	0x390629e2	0.00012794838
17	0x38cc6c51	9.7476535e-05
18	0x38208e84	3.82797e-05
19	0x38208e84	3.82797e-05
20	0x393ecd0a	0.00018196195
21	0x391a13e6	0.00014693997
22	0x394e094b	0.00019649153
23	0x3929d24b	0.00016195436
24	0x3929d24b	0.00016195436
25	0x39058f00	0.0001273714
26	0x38fc34b3	0.000120261124
27	0x3848fcee	4.7919275e-05
28	0x37a22b74	1.933214e-05
29	0x37a22b74	1.933214e-05
30	0x00000000	0.0
31	0x00000000	0.0
32	0x00000000	0.0
33	0x00000000	0.0
34	0x00000000	0.0
35	0x392f2a3d	0.00016705036
36	0x38e1e1c7	0.000107708904
37	0x3920e9fa	0.00015345952
38	0x3961f7b0	0.00021549943
39	0x3961f7b0	0.00021549943
40	0x00000000	0.0
41	0x00000000	0.0
42	0x00000000	0.0
43	0x00000000	0.0
44	0x00000000	0.0
45	0x3842d143	4.6448095e-05
46	0x39141030	0.0001412041
47	0x38807613	6.125509e-05
48	0x38c5ee10	9.4380346e-05
49	0x38c5ee10	9.4380346e-05
50	0x3a30491c	0.00067247613
51	0x39cd3f67	0.00039147885
52	0x3a45786d	0.00075328985
53	0x39e14676	0.00042967842
54	0x39e14676	0.00042967842
55	0x3897c7d1	7.23746e-05
56	0x37752e56	1.4613926e-05
57	0x393cc7fd	0.00018003579
58	0x38ea1440	0.00011161761
59	0x38ea1440	0.00011161761
60	0x38f35072	0.00011602127
61	0x38482556	4.7718488e-05
62	0x3930952e	0.00016840242
63	0x39639805	0.00021705039
64	0x39639805	0.00021705039
65	0x38724d43	5.776925e-05
66	0x390261ce	0.00012434201
67	0x388c194e	6.6804336e-05
68	0x39bda49c	0.00036171533
69	0x39bda49c	0.00036171533
70	0x395a94f1	0.00020845585
71	0x39147b62	0.00014160344
72	0x39c605ac	0.0003776973
73	0x393809bd	0.00017551235
74	0x393809bd	0.00017551235
75	0x39034aff	0.00012521072
76	0x38f7342e	0.00011787597
77	0x3980e99d	0.00024588118
78	0x383aec12	4.4565713e-05
79	0x383aec12	4.4565713e-05
80	0x384da930	4.9033377e-05
81	0x37a921b0	2.0162057e-05
82	0x39031d96	0.00012504155
83	0x389cc238	7.474836e-05
84	0x389cc238	7.474836e-05
85	0x39a67a51	0.0003175312
86	0x39a63474	0.00031701068
87	0x39b1f797	0.0003394454
88	0x39538c2c	0.00020174746
89	0x39538c2c	0.00020174746
90	0x38af8dae	8.37104e-05
91	0x39056bd8	0.00012724043
92	0x3894c6a2	7.094188e-05
93	0x38fdb4c8	0.00012097653
94	0x38fdb4c8	0.00012097653
95	0x387e01a9	6.0559865e-05
96	0x390d06ab	0.00013449292
97	0x387e0137	6.055945e-05
98	0x38d5cb3e	0.00010194488
99	0x38d5cb3e	0.00010194488
100	0x3939cbb3	0.00017718859
101	0x398907b5	0.00026136418
102	0x39712c84	0.00023000134
103	0x391955c8	0.00014623173
104	0x391955c8	0.00014623173
105	0x38739edb	5.808366e-05
106	0x38bccc83	9.002632e-05
107	0x3860ebdc	5.3625423e-05
108	0x39ccd4e4	0.00039068528
109	0x39ccd4e4	0.00039068528
110	0x32a84dfe	1.959324e-08
111	0x3832ff61	4.2676347e-05
112	0x37d96ce2	2.5919118e-05
113	0x38de7651	0.00010607823
114	0x38de7651	0.00010607823
115	0x37ec9b0b	2.820559e-05
116	0x37f9d6cb	2.9783134e-05
117	0x383f7e76	4.5655725e-05
118	0x38950df1	7.1074704e-05
119	0x38950df1	7.1074704e-05
120	0x39018aeb	0.0001235415
121	0x39595052	0.00020724654
122	0x38e9bb51	0.00011145196
123	0x38dfea4d	0.000106771105
124	0x38dfea4d	0.000106771105
125	0x38807472	6.125205e-05
126	0x38fa8b08	0.000119468255
127	0x37bcce05	2.2507282e-05
128	0x3908ed55	0.00013058384
129	0x3908ed55	0.00013058384
130	0x37fbe3c7	3.0027599e-05
131	0x39247dd8	0.00015687139
132	0x38d95509	0.000103632054
133	0x384ebe66	4.929155e-05
134	0x384ebe66	4.929155e-05
135	0x38768f7f	5.878461e-05
136	0x3911fb54	0.00013921905
137	0x38eb5a17	0.00011222454
138	0x391155c5	0.00013860229
139	0x391155c5	0.00013860229
140	0x388df14c	6.768349e-05
141	0x3899d980	7.336121e-05
142	0x389e6b49	7.5540105e-05
143	0x383dca6b	4.5249628e-05
144	0x383dca6b	4.5249628e-05
145	0x3888e373	6.527351e-05
146	0x38b20055	8.487763e-05
147	0x367b6c31	3.746489e-06
148	0x382f3d99	4.178062e-05
149	0x382f3d99	4.178062e-05
150	0x3848dfef	4.789227e-05
151	0x38145dca	3.5373298e-05
152	0x38cab4ae	9.665765e-05
153	0x394fd064	0.0001981869
154	0x394fd064	0.0001981869
155	0x38330923	4.2685435e-05
156	0x385d8247	5.2811836e-05
157	0x3875af98	5.8576086e-05
158	0x383728e7	4.3668693e-05
159	0x383728e7	4.3668693e-05
160	0x396c7fff	0.00022554396
161	0x39af5226	0.00033439806
162	0x39b39cf2	0.00034258474
163	0x38dc0414	0.00010491177
164	0x38dc0414	0.00010491177
165	0x391036a3	0.00013753264
166	0x38f3584b	0.00011603589
167	0x38e731db	0.00011024225
168	0x38bfd193	9.146626e-05
169	0x38bfd193	9.146626e-05
170	0x3940f95f	0.00018403445
171	0x39837530	0.0002507358
172	0x398a6cc0	0.00026402436
173	0x391c7571	0.0001492107
174	0x391c7571	0.0001492107
175	0x3771b6f8	1.440732e-05
176	0x379ea7aa	1.8913142e-05
177	0x380063ea	3.061063e-05
178	0x376cf121	1.4122838e-05
179	0x376cf121	1.4122838e-05
180	0x392accae	0.00016288713
181	0x39536ed9	0.00020163822
182	0x39e6619d	0.00043941746
183	0x39ac1238	0.0003281997
184	0x39ac1238	0.0003281997
185	0x38f2572b	0.000115556955
186	0x39391327	0.0001765011
187	0x39170f01	0.00014406072
188	0x3890644a	6.8851354e-05
189	0x3890644a	6.8851354e-05
190	0x392c7fa2	0.00016450745
191	0x393f5b7b	0.00018249259
192	0x3921086f	0.00015357298
193	0x39a08b4a	0.00030621357
194	0x39a08b4a	0.00030621357
195	0x00000000	0.0
196	0x00000000	0.0
197	0x00000000	0.0
198	0x00000000	0.0
199	0x00000000	0.0
200	0x3829c751	4.0478368e-05
201	0x3935b216	0.00017327847
202	0x3789c781	1.6424574e-05
203	0x39914a94	0.0002771212
204	0x39914a94	0.0002771212
205	0x383527fa	4.3190994e-05
206	0x3820706a	3.8251666e-05
207	0x384d83f6	4.8998707e-05
208	0x3848270e	4.772009e-05
209	0x3848270e	4.772009e-05
210	0x38a9af51	8.091203e-05
211	0x390029a0	0.00012222538
212	0x3884c7cf	6.331468e-05
213	0x3885fddd	6.38922e-05
214	0x3885fddd	6.38922e-05
215	0x2fd03261	3.7870776e-10
216	0x37f2eb46	2.8958206e-05
217	0x3832dce0	4.2644213e-05
218	0x39e3d410	0.00043454813
219	0x39e3d410	0.00043454813
220	0x39230fcd	0.00015550778
221	0x393fb59d	0.00018282836
222	0x3911f4f1	0.00013919525
223	0x389db7a5	7.52055e-05
224	0x389db7a5	7.52055e-05
225	0x380625f1	3.1983425e-05
226	0x32571cb4	1.2521173e-08
227	0x393cb6b0	0.00017997134
228	0x39d91292	0.000414033
229	0x39d91292	0.000414033
230	0x396436df	0.00021764215
231	0x39172c4c	0.00014416984
232	0x3990b006	0.00027596968
233	0x39b68cb2	0.0003481857
234	0x39b68cb2	0.0003481857
235	0x39806020	0.0002448568
236	0x3917cbf0	0.00014476455
237	0x39b2f76a	0.00034135144
238	0x398c6935	0.00026781266
239	0x398c6935	0.00026781266
240	0x396e7519	0.00022741071
241	0x398c263b	0.00026731365
242	0x398008e7	0.00024420695
243	0x3938f7dc	0.00017639942
244	0x3938f7dc	0.00017639942
245	0x3935dded	0.00017344179
246	0x395fbd4a	0.00021337453
247	0x39361554	0.00017364818
248	0x3893169a	7.013716e-05
249	0x3893169a	7.013716e-05

exp_avg f4 [50]
0	0xbb9820f6	-0.004642601
1	0xbb8e9756	-0.0043515367
2	0x3bf9d2bc	0.0076239984
3	0x3b55fefb	0.00326532
4	0x3bfd05cd	0.007721639
5	0x3bab7434	0.0052323584
6	0x00000000	0.0
7	0xb9a3be0e	-0.00031231384
8	0x00000000	0.0
9	0xbb9c054b	-0.004761373
10	0xbaf12eb3	-0.0018400758
11	0xbb2fa21b	-0.0026799503
12	0x3b70348b	0.0036652412
13	0x3cdc150b	0.026865503
14	0xbb9a6ee5	-0.0047129267
15	0xba0583b6	-0.0005093174
16	0xba644981	-0.00087084627
17	0xbb97afff	-0.0046291347
18	0x3bb15378	0.0054115616
19	0x3aadf6fe	0.0013272462
20	0x3bb1dd58	0.0054279976
21	0xbb5020fa	-0.0031757937
22	0x3be40069	0.0069580567
23	0xbac2f99b	-0.0014875414
24	0x3b343724	0.0027498687
25	0x3b5c52bc	0.003361865
26	0x3b0c8e22	0.0021447022
27	0x3c6e948e	0.014561785
28	0xb8c17ce8	-9.226223e-05
29	0x3c13d0b0	0.009021923
30	0xbc841e25	-0.016127655
31	0x3c2774fd	0.010220763
32	0x3b1032dc	0.002200297
33	0xbc5c7b25	-0.013457094
34	0xbb838018	-0.0040130727
35	0xb8a8e770	-8.053973e-05
36	0x3bd34c7c	0.0064483266
37	0xbb143b5d	-0.002261839
38	0xbb60568b	-0.003423127
39	0x00000000	0.0
40	0x3b373de0	0.0027960464
41	0x3b9d7770	0.004805498
42	0xbb2d5272	-0.0026446846
43	0x3cfd01e2	0.030884687
44	0x3b633386	0.0034668162
45	0x3ca451dc	0.020058565
46	0x3c3e99c2	0.011633338
47	0xbc014a6f	-0.0078912815
48	0xbc272316	-0.010201236
49	0xbb794088	-0.0038032848

exp_avg_sq f4 [50]
0	0x3a260ebf	0.0006334595
1	0x3a25c279	0.0006323229
2	0x3aef6e6d	0.0018267162
3	0x392e8959	0.00016645099
4	0x39c09e8a	0.00036739215
5	0x39107829	0.00013777673
6	0x00000000	0.0
7	0x39c50e51	0.00037585435
8	0x00000000	0.0
9	0x39d0bf7d	0.0003981552
10	0x3ac33906	0.0014894314
11	0x39ca26f4	0.00038557465
12	0x3a164493	0.0005732264
13	0x3ab8d5f6	0.0014101851
14	0x3a6e78a7	0.0009096958
15	0x398ed6fa	0.0002724452
16	0x395a198b	0.00020799616
17	0x3a4edf68	0.00078915665
18	0x39896519	0.00026206
19	0x3960a040	0.00021422002
20	0x3a254be2	0.0006305558
21	0x3ac8df91	0.0015325417
22	0x3a1fc2a8	0.00060943747
23	0x39317330	0.00016922946
24	0x39f2321b	0.00046195168
25	0x3a031caf	0.00050015276
26	0x39c57bef	0.00037667106
27	0x3ac3ed4a	0.0014948037
28	0x3915ce4f	0.00014286603
29	0x39a67edf	0.00031756514
30	0x3a7ba60f	0.0009599635
31	0x3995c311	0.0002856483
32	0x3a1802ca	0.00057987554
33	0x3a05e03b	0.00051069603
34	0x3a1347ee	0.00056183233
35	0x389a14bd	7.347155e-05
36	0x3ad43622	0.0016190449
37	0x3970173d	0.0002289684
38	0x3a1dc178	0.0006017904
39	0x00000000	0.0
40	0x3a442aa1	0.0007483159
41	0x39958042	0.00028515054
42	0x399cc0bc	0.00029898237
43	0x3b081c65	0.0020768878
44	0x399092db	0.00027575236
45	0x3a8e3fcf	0.0010852757
46	0x3a39d4a3	0.0007088875
47	0x3a5f37df	0.00085151003
48	0x3a3e44da	0.00072581845
49	0x39b3e6b8	0.0003431344

exp_avg f4 [50, 50]
0	0x00000004	6e-45
1	0x00000004	6e-45
2	0x00000004	6e-45
3	0x00000004	6e-45
4	0x00000004	6e-45
5	0x00000004	6e-45
6	0x00000000	0.0
7	0x00000000	0.0
8	0x00000000	0.0
9	0x00000004	6e-45
10	0x00000004	6e-45
11	0x00000004	6e-45
12	0x00000004	6e-45
13	0x00000004	6e-45
14	0x80000004	-6e-45
15	0x00000004	6e-45
16	0x00000004	6e-45
17	0x00000004	6e-45
18	0x00000004	6e-45
19	0x00000000	0.0
20	0x00000004	6e-45
21	0x00000000	0.0
22	0x00000004	6e-45
23	0x00000004	6e-45
24	0x00000004	6e-45
25	0x00000004	6e-45
26	0x00000004	6e-45
27	0x80000004	-6e-45
28	0x00000004	6e-45
29	0x00000004	6e-45
30	0x00000004	6e-45
31	0x00000004	6e-45
32	0x00000004	6e-45
33	0x00000004	6e-45
34	0x00000004	6e-45
35	0x00000004	6e-45
36	0x00000000	0.0
37	0x00000004	6e-45
38	0x00000004	6e-45
39	0x00000000	0.0
40	0x00000004	6e-45
41	0x00000004	6e-45
42	0x00000004	6e-45
43	0x00000004	6e-45
44	0x00000004	6e-45
45	0x00000004	6e-45
46	0x00000004	6e-45
47	0x00000004	6e-45
48	0x00000004	6e-45
49	0x00000004	6e-45
50	0x37e54aea	2.7333812e-05
51	0x38a3d96b	7.812943e-05
52	0xb7b71bfc	-2.1828331e-05
53	0x3a333b68	0.00068371603
54	0x3a1faa38	0.0006090733
55	0x393615f7	0.00017365055
56	0x00000000	0.0
57	0x364d6aa7	3.060946e-06
58	0x00000000	0.0
59	0xb8ae7922	-8.319529e-05
60	0x39c490f2	0.00037492026
61	0xb724db64	-9.826243e-06
62	0x39b7468c	0.00034957041
63	0x3921ed92	0.00015442658
64	0x383d8b9b	4.519113e-05
65	0xb8b6fcbb	-8.725511e-05
66	0xb863fc84	-5.435619e-05
67	0x399b8b4c	0.00029667688
68	0xb76f1ed6	-1.425269e-05
69	0x36e3029b	6.7654305e-06
70	0x3906d4c4	0.00012858497
71	0x389cfc74	7.485683e-05
72	0x39ef6854	0.00045663363
73	0xb819acd0	-3.6638987e-05
74	0x3a71d44a	0.0009225054
75	0x390d4de8	0.0001347583
76	0xb8bca2d3	-8.994867e-05
77	0x39ba90ff	0.00035584715
78	0x39b8df84	0.00035261747
79	0xb90b6d69	-0.00013296831
80	0xb9429437	-0.00018556496
81	0x398a13e5	0.00026336234
82	0x39e536b8	0.00043719052
83	0x3a599d7f	0.0008301362
84	0x3abc6f8b	0.0014376504
85	0x3837911e	4.376575e-05
86	0xb78b74bc	-1.662445e-05
87	0x39a1d6cb	0.00030868346
88	0x3aa4ac1f	0.0012563503
89	0x00000000	0.0
90	0x38d9418e	0.00010359577
91	0x395812f4	0.00020606426
92	0x3a53a575	0.0008073666
93	0x392f802e	0.00016737051
94	0x3a674476	0.0008822152
95	0xb8c115f0	-9.207043e-05
96	0xb8e2aee9	-0.00010809099
97	0x38129280	3.494555e-05
98	0x3add1d4d	0.0016869694
99	0x3a657332	0.0008752822
100	0x00000004	6e-45
101	0x00000004	6e-45
102	0x00000004	6e-45
103	0x80000004	-6e-45
104	0x00000004	6e-45
105	0x00000004	6e-45
106	0x00000000	0.0
107	0x00000004	6e-45
108	0x00000000	0.0
109	0x00000004	6e-45
110	0x00000004	6e-45
111	0x00000004	6e-45
112	0x00000004	6e-45
113	0x00000004	6e-45
114	0x00000004	6e-45
115	0x00000004	6e-45
116	0x00000004	6e-45
117	0x00000004	6e-45
118	0x00000004	6e-45
119	0x00000004	6e-45
120	0x80000004	-6e-45
121	0x00000004	6e-45
122	0x00000004	6e-45
123	0x00000004	6e-45
124	0x00000004	6e-45
125	0x00000004	6e-45
126	0x00000004	6e-45
127	0x00000004	6e-45
128	0x00000004	6e-45
129	0x00000004	6e-45
130	0x00000004	6e-45
131	0x00000004	6e-45
132	0x00000004	6e-45
133	0x00000004	6e-45
134	0x00000004	6e-45
135	0x00000004	6e-45
136	0x00000004	6e-45
137	0x00000004	6e-45
138	0x00000004	6e-45
139	0x00000000	0.0
140	0x00000004	6e-45
141	0x00000004	6e-45
142	0x00000004	6e-45
143	0x00000004	6e-45
144	0x80000004	-6e-45
145	0x00000004	6e-45
146	0x00000004	6e-45
147	0x00000004	6e-45
148	0x00000004	6e-45
149	0x00000004	6e-45
150	0xb8f7e3e4	-0.00011820326
151	0xb8485d74	-4.777075e-05
152	0xb88a5c97	-6.597599e-05
153	0x3ad83b75	0.0016497212
154	0xb98086dc	-0.0002451454
155	0x3a2db553	0.00066264457
156	0x00000000	0.0
157	0x3a36d3e4	0.0006974323
158	0x00000000	0.0
159	0xb8f13678	-0.00011501921
160	0xb9c92416	-0.00038364594
161	0x3a561e96	0.000816801
162	0xb9fdf093	-0.00048435162
163	0xba92d66e	-0.0011202821
164	0xb91efe08	-0.00015162688
165	0x3a727a51	0.0009249794
166	0xb9d531ca	-0.00040663622
167	0xb82cab94	-4.116779e-05
168	0xba44db30	-0.0007509468
169	0x380c3fc8	3.3438002e-05
170	0x3a6d472e	0.0009051439
171	0xb9d85a34	-0.00041265937
172	0xbaf1fd60	-0.0018462352
173	0x3941b1e4	0.00018472184
174	0x3a59710a	0.0008294737
175	0x3987c94a	0.0002589918
176	0x39d49bb6	0.00040551805
177	0xb9140311	-0.00014115522
178	0xb9dbb0a0	-0.0004190253
179	0xba88fe7f	-0.0010451822
180	0x3af51471	0.0018698109
181	0xb88623e8	-6.396306e-05
182	0xb9d2b38e	-0.000401881
183	0x3a10349e	0.00055010046
184	0x3ac582a4	0.0015068841
185	0x3949e9d8	0.00019255967
186	0x36a8f6e0	5.03553e-06
187	0x392814f6	0.00016029537
188	0x3a9911c8	0.0011678273
189	0x00000000	0.0
190	0x3816a418	3.591561e-05
191	0xb9bd6a18	-0.00036127935
192	0x3994630f	0.00028302564
193	0xba5a62da	-0.000833077
194	0x3aa59f70	0.0012636017
195	0xb942e137	-0.00018585181
196	0xba3fb693	-0.00073132775
197	0xba974681	-0.0011541398
198	0x3b165450	0.0022938438
199	0x39df6b94	0.00042614026
200	0x00000004	6e-45
201	0x00000004	6e-45
202	0x00000004	6e-45
203	0x00000000	0.0
204	0x00000000	0.0
205	0x00000004	6e-45
206	0x00000000	0.0
207	0x00000004	6e-45
208	0x00000000	0.0
209	0x00000000	0.0
210	0x00000004	6e-45
211	0x00000000	0.0
212	0x00000004	6e-45
213	0x00000004	6e-45
214	0x00000004	6e-45
215	0x00000000	0.0
216	0x00000004	6e-45
217	0x00000004	6e-45
218	0x00000004	6e-45
219	0x00000000	0.0
220	0x00000000	0.0
221	0x00000004	6e-45
222	0x00000004	6e-45
223	0x00000000	0.0
224	0x00000004	6e-45
225	0x00000004	6e-45
226	0x00000000	0.0
227	0x00000000	0.0
228	0x00000004	6e-45
229	0x00000000	0.0
230	0x00000000	0.0
231	0x00000004	6e-45
232	0x00000004	6e-45
233	0x00000004	6e-45
234	0x00000004	6e-45
235	0x00000004	6e-45
236	0x00000000	0.0
237	0x00000004	6e-45
238	0x00000004	6e-45
239	0x00000000	0.0
240	0x00000000	0.0
241	0x00000004	6e-45
242	0x00000004	6e-45
243	0x00000004	6e-45
244	0x00000004	6e-45
245	0x00000004	6e-45
246	0x00000000	0.0
247	0x00000004	6e-45
248	0x00000004	6e-45
249	0x00000004	6e-45
250	0x3a07e329	0.0005183691
251	0xb950635c	-0.0001987344
252	0x3948050e	0.0001907537
253	0xba1d7c17	-0.00060075655
254	0xb924cc23	-0.00015716306
255	0xba3ed334	-0.00072793965

exp_avg_sq f4 [50, 50]
0	0x000001f4	7e-43
1	0x000001f4	7e-43
2	0x000001f4	7e-43
3	0x000001f4	7e-43
4	0x000001f4	7e-43
5	0x000001f4	7e-43
6	0x00000000	0.0
7	0x00000000	0.0
8	0x00000000	0.0
9	0x000001f4	7e-43
10	0x000001f4	7e-43
11	0x000001f4	7e-43
12	0x000001f4	7e-43
13	0x000001f4	7e-43
14	0x000001f4	7e-43
15	0x000001f4	7e-43
16	0x000001f4	7e-43
17	0x000001f4	7e-43
18	0x000001f4	7e-43
19	0x00000000	0.0
20	0x000001f4	7e-43
21	0x00000000	0.0
22	0x000001f4	7e-43
23	0x000001f4	7e-43
24	0x000001f4	7e-43
25	0x000001f4	7e-43
26	0x000001f4	7e-43
27	0x000001f4	7e-43
28	0x000001f4	7e-43
29	0x000001f4	7e-43
30	0x000001f4	7e-43
31	0x000001f4	7e-43
32	0x000001f4	7e-43
33	0x000001f4	7e-43
34	0x000001f4	7e-43
35	0x000001f4	7e-43
36	0x00000000	0.0
37	0x000001f4	7e-43
38	0x000001f4	7e-43
39	0x00000000	0.0
40	0x000001f4	7e-43
41	0x000001f4	7e-43
42	0x000001f4	7e-43
43	0x000001f4	7e-43
44	0x000001f4	7e-43
45	0x000001f4	7e-43
46	0x000001f4	7e-43
47	0x000001f4	7e-43
48	0x000001f4	7e-43
49	0x000001f4	7e-43
50	0x343b1f1c	1.742705e-07
51	0x366bf611	3.5160958e-06
52	0x348da1fc	2.6381156e-07
53	0x356cc8cc	8.820905e-07
54	0x37a99df0	2.0219915e-05
55	0x33bc93b9	8.781303e-08
56	0x00000000	0.0
57	0x2f9306e8	2.6744051e-10
58	0x00000000	0.0
59	0x362fd98b	2.6203659e-06
60	0x36c45ae8	5.851838e-06
61	0x34e21374	4.2109934e-07
62	0x365a0073	3.2484793e-06
63	0x37d19c6f	2.4987587e-05
64	0x364dcf1d	3.0667936e-06
65	0x35bf7543	1.4264737e-06
66	0x34323dce	1.6600026e-07
67	0x36b3f32a	5.3629237e-06
68	0x35f6cf4f	1.8388763e-06
69	0x33a05eea	7.4678454e-08
70	0x3686ca03	4.0170285e-06
71	0x35c5750a	1.4711707e-06
72	0x35b56aab	1.3516595e-06
73	0x350aa982	5.165567e-07
74	0x367fef12	3.8137118e-06
75	0x3575fc46	9.163672e-07
76	0x36a90bc2	5.0379613e-06
77	0x379bbdcc	1.8565821e-05
78	0x3680c702	3.837865e-06
79	0x3698453f	4.5380143e-06
80	0x362cb26c	2.5733852e-06
81	0x36c41dae	5.8447104e-06
82	0x377bc2ff	1.5006167e-05
83	0x37200742	9.538433e-06
84	0x375ac818	1.30404005e-05
85	0x34b49b75	3.3640723e-07
86	0x35fd8b86	1.8890576e-06
87	0x36047ca9	1.9742095e-06
88	0x36b19169	5.291939e-06
89	0x00000000	0.0
90	0x3581416a	9.630287e-07
91	0x36f25584	7.2221173e-06
92	0x36ea748c	6.9873113e-06
93	0x36153e45	2.2238976e-06
94	0x3659c9f8	3.245308e-06
95	0x3455ef41	1.9924211e-07
96	0x3606afbe	2.0069851e-06
97	0x36de63c8	6.6277316e-06
98	0x37c31a26	2.3257988e-05
99	0x36bb5ee8	5.584083e-06
100	0x000001f4	7e-43
101	0x000001f4	7e-43
102	0x000001f4	7e-43
103	0x000001f4	7e-43
104	0x000001f4	7e-43
105	0x000001f4	7e-43
106	0x00000000	0.0
107	0x000001f4	7e-43
108	0x00000000	0.0
109	0x000001f4	7e-43
110	0x000001f4	7e-43
111	0x000001f4	7e-43
112	0x000001f4	7e-43
113	0x000001f4	7e-43
114	0x000001f4	7e-43
115	0x000001f4	7e-43
116	0x000001f4	7e-43
117	0x000001f4	7e-43
118	0x000001f4	7e-43
119	0x000001f4	7e-43
120	0x000001f4	7e-43
121	0x000001f4	7e-43
122	0x000001f4	7e-43
123	0x000001f4	7e-43
124	0x000001f4	7e-43
125	0x000001f4	7e-43
126	0x000001f4	7e-43
127	0x000001f4	7e-43
128	0x000001f4	7e-43
129	0x000001f4	7e-43
130	0x000001f4	7e-43
131	0x000001f4	7e-43
132	0x000001f4	7e-43
133	0x000001f4	7e-43
134	0x000001f4	7e-43
135	0x000001f4	7e-43
136	0x000001f4	7e-43
137	0x000001f4	7e-43
138	0x000001f4	7e-43
139	0x00000000	0.0
140	0x000001f4	7e-43
141	0x000001f4	7e-43
142	0x000001f4	7e-43
143	0x000001f4	7e-43
144	0x000001f4	7e-43
145	0x000001f4	7e-43
146	0x000001f4	7e-43
147	0x000001f4	7e-43
148	0x000001f4	7e-43
149	0x000001f4	7e-43
150	0x3761a9c2	1.345057e-05
151	0x36e89cbb	6.9323846e-06
152	0x350aa7a0	5.165293e-07
153	0x376a2e36	1.3958246e-05
154	0x373ee493	1.1378102e-05
155	0x36072c2c	2.014228e-06
156	0x00000000	0.0
157	0x362291e1	2.4224794e-06
158	0x00000000	0.0
159	0x36a62fc3	4.9527457e-06
160	0x36e12a2e	6.710433e-06
161	0x36ef2c32	7.1279e-06
162	0x37ac1867	2.0515361e-05
163	0x382dd880	4.1448046e-05
164	0x380c0d46	3.3390963e-05
165	0x36ede6f3	7.0900364e-06
166	0x35e24cab	1.6860625e-06
167	0x36625422	3.3725596e-06
168	0x35f62fe6	1.8342369e-06
169	0x351e4e1b	5.8973245e-07
170	0x3754d241	1.2685138e-05
171	0x3759fa18	1.2992437e-05
172	0x36c82c35	5.965611e-06
173	0x36f14b5e	7.1911336e-06
174	0x380792f0	3.2323354e-05
175	0x365fbb04	3.3338447e-06
176	0x3786695d	1.6023108e-05
177	0x37ee2df3	2.8393208e-05
178	0x35e0aaa7	1.6738967e-06
179	0x3676e870	3.6792153e-06
180	0x37bc1da2	2.2425145e-05
181	0x36f26347	7.2237194e-06
182	0x37f7307a	2.9467268e-05
183	0x37822d47	1.5518292e-05
184	0x37afe9fd	2.0970585e-05
185	0x35a5d276	1.235471e-06
186	0x37de05fe	2.6467253e-05
187	0x364f73bb	3.0912768e-06
188	0x3731741d	1.0577057e-05
189	0x00000000	0.0
190	0x35c5c613	1.4735291e-06
191	0x38073aad	3.2241154e-05
192	0x35f68a0f	1.8368609e-06
193	0x3691d2a8	4.3458604e-06
194	0x37b64573	2.172843e-05
195	0x3632cba3	2.66426e-06
196	0x368fc060	4.2841275e-06
197	0x375483be	1.2666858e-05
198	0x38617a07	5.3757827e-05
199	0x376e8c65	1.4218594e-05
200	0x000001f4	7e-43
201	0x000001f4	7e-43
202	0x000001f4	7e-43
203	0x00000000	0.0
204	0x00000000	0.0
205	0x000001f4	7e-43
206	0x00000000	0.0
207	0x000001f4	7e-43
208	0x00000000	0.0
209	0x00000000	0.0
210	0x000001f4	7e-43
211	0x00000000	0.0
212	0x000001f4	7e-43
213	0x000001f4	7e-43
214	0x000001f4	7e-43
215	0x00000000	0.0
216	0x000001f4	7e-43
217	0x000001f4	7e-43
218	0x000001f4	7e-43
219	0x00000000	0.0
220	0x00000000	0.0
221	0x000001f4	7e-43
222	0x000001f4	7e-43
223	0x00000000	0.0
224	0x000001f4	7e-43
225	0x000001f4	7e-43
226	0x00000000	0.0
227	0x00000000	0.0
228	0x000001f4	7e-43
229	0x00000000	0.0
230	0x00000000	0.0
231	0x000001f4	7e-43
232	0x000001f4	7e-43
233	0x000001f4	7e-43
234	0x000001f4	7e-43
235	0x000001f4	7e-43
236	0x00000000	0.0
237	0x000001f4	7e-43
238	0x000001f4	7e-43
239	0x00000000	0.0
240	0x00000000	0.0
241	0x000001f4	7e-43
242	0x000001f4	7e-43
243	0x000001f4	7e-43
244	0x000001f4	7e-43
245	0x000001f4	7e-43
246	0x00000000	0.0
247	0x000001f4	7e-43
248	0x000001f4	7e-43
249	0x000001f4	7e-43
250	0x37adf5f4	2.0737738e-05
251	0x3768091c	1.38303985e-05
252	0x35dab803	1.629582e-06
253	0x36b1f665	5.303695e-06
254	0x35d1213c	1.5581386e-06
255	0x36671152	3.4431764e-06

exp_avg f4 [50]
0	0x00000004	6e-45
1	0x3ace1acd	0.001572454
2	0x00000004	6e-45
3	0xba79a4c8	-0.00095231505
4	0x00000004	6e-45
5	0x3a57265a	0.0008207314
6	0x3b4f3dd1	0.0031622539
7	0x00000004	6e-45
8	0xbbef2a63	-0.007298754
9	0x00000004	6e-45
10	0x00000004	6e-45
11	0xb9ffd9a4	-0.00048799545
12	0x3a6fa9ac	0.00091424095
13	0xb89d7e18	-7.50983e-05
14	0xbbc518dc	-0.0060149264
15	0xb9489f28	-0.00019132777
16	0xb8fa22e0	-0.00011927425
17	0x00000004	6e-45
18	0xb85589b0	-5.091139e-05
19	0xbaada557	-0.0013248128
20	0x00000004	6e-45
21	0xb9ddc2fb	-0.00042297677
22	0x3b6f8b58	0.0036551561
23	0xba084658	-0.00051984703
24	0x00000004	6e-45
25	0xbb1eb708	-0.0024217982
26	0x3a1bef89	0.0005948474
27	0xbc41bd7d	-0.011824963
28	0xb9240dd0	-0.00015645404
29	0x3b152f6a	0.0022763857
30	0x3a9a0cf4	0.0011753128
31	0x3c36ac38	0.011149459
32	0x00000004	6e-45
33	0x3b53bfcf	0.0032310372
34	0x393662ae	0.00017393634
35	0xba9270fb	-0.0011172587
36	0x00000004	6e-45
37	0x3a2b932b	0.0006545062
38	0xba209b08	-0.0006126617
39	0xb9f9c426	-0.00047639123
40	0xbad33ad8	-0.0016115559
41	0x00000004	6e-45
42	0xba859cab	-0.0010193785
43	0x3a8383dc	0.0010033804
44	0xbb6f3fd6	-0.0036506555
45	0x00000004	6e-45
46	0x00000004	6e-45
47	0xb8017d10	-3.087247e-05
48	0xbbb913c6	-0.005648109
49	0x3bf3f7da	0.0074453177
